app/src/main/assets/output_model.tflite (tflite, 863624 bytes, 44 tensors)

model_4/sec10_bn/FusedBatchNormV3 f4 [128]
-0.041396543 -0.03410873 -0.030053712 0.030005526 0.021045053 -0.08064024 -0.008870712 -0.08247127
0.00064859993 0.049456563 0.059568323 -0.03737579 -0.13317119 -0.04214567 0.025810646 -0.020428471
-0.002532334 -0.019630179 0.05752643 -0.03558306 -0.019448351 -0.016823627 -0.026815519 0.03515903
-0.06119187 -0.016413717 -0.073208235 0.029717306 -0.028432548 -0.0982518 0.047642842 -0.035026975
0.013171759 -0.07205736 -0.012965356 0.051548988 0.03618642 -0.0056741918 0.0011331405 0.002236035
-0.041743286 -0.044263396 -0.15039411 -0.06200735 -0.013528338 -0.0878038 -0.041977916 0.068859614
0.0029108454 0.027149107 0.014726086 -0.0149918115 -0.084730685 0.004741696 -0.06567 0.060768526
0.07732307 -0.04454572 -0.004464643 0.014567119 -0.123241335 -0.050840247 -0.094757766 0.03788502
-0.09396687 -0.029764058 -0.10249408 0.033718266 0.011172231 0.03060707 -0.05697523 -0.058342274
0.05287818 0.0037478912 -0.04958558 0.0049657254 -0.066114835 -0.016578855 0.037145264 0.0058152564
-0.049260244 0.05440546 -0.003701546 0.1276207 -0.041207634 0.08607351 -0.03374797 0.005632791
-0.026204428 0.032320093 -0.058518313 -0.02766881 -0.02069206 -0.11451259 0.016093208 0.059492256
-0.0018899878 -0.057562467 0.037445545 -0.070029795 0.12456608 0.037437223 -0.023198843 -0.025427448
0.06617865 -0.07689587 0.029771207 -0.03380432 -0.022769785 -0.05632981 -0.0154843265 0.0034300992
0.03657275 -0.152701 0.06436219 0.05080144 0.005663739 -0.08878521 0.02457129 0.07164319
-0.005867388 0.034249894 0.012178809 0.04666006 0.01852423 0.05895904 0.10434412 -0.02387963
00000000: 6c8f 29bd 98b5 0bbd 3433 f6bc 26ce f53c
00000010: ad66 ac3c b626 a5bd 7656 11bc b2e6 a8bd
00000020: ce06 2a3a f792 4a3d eafd 733d 5b17 19bd
00000030: 075e 08be f0a0 2cbd d970 d33c 9c59 a7bc
00000040: 84f5 25bb 78cf a0bc d5a0 6b3d 8bbf 11bd
00000050: 2652 9fbc b4d1 89bc 38ac dbbc ea02 103d
00000060: 54a4 7abd 0f76 86bc 33ee 95bd b571 f33c
00000070: 60eb e8bc 3d38 c9bd 2425 433d 7278 0fbd
00000080: 5dce 573c cf92 93bd a56c 54bc 0825 533d
00000090: 3638 143d 92ee b9bb e385 943a 718a 123b
000000a0: 02fb 2abd 894d 35bd ea00 1abe 6bfb 7dbd
000000b0: f6a5 5dbc 7bd2 b3bd 09f1 2bbd 4506 8d3d
000000c0: e2c3 3e3b ce67 de3c ae45 713c 37a0 75bc
000000d0: 4887 adbd 3b60 9b3b fe7d 86bd 6be8 783d
000000e0: 8f5b 9e3d 9375 36bd 244c 92bb edaa 6e3c
000000f0: f465 fcbd dd3d 50bd 5c10 c2bd 532d 1b3d
00000100: b471 c0bd c1d3 f3bc 6be8 d1bd 2a1c 0a3d
00000110: bc0b 373c aebb fa3c dc5e 69bd 4ff8 6ebd
00000120: ca96 583d 2e9f 753b 401a 4bbd 86b7 a23b
00000130: 3767 87bd 61d0 87bc a225 183d e88d be3b
00000140: 1cc5 49bd 42d8 5e3d a395 72bb 00af 023e
00000150: 56c9 28bd 4f47 b03d 503b 0abd 4793 b83b
00000160: abaa d6bc 1362 043d e6b0 6fbd b3a9 e2bc
00000170: 6582 a9bc 9485 eabd e7d5 833c 27ae 733d
00000180: 78b9 f7ba 9fc6 6bbd 8060 193d c86b 8fbd
00000190: 801c ff3d c657 193d 800b bebc 394d d0bc
000001a0: ac88 873d 957b 9dbd bfe2 f33c 6676 0abd
000001b0: b387 babc 16ba 66bd f9b1 7dbc 84cb 603b
000001c0: 4fcd 153d a75d 1cbe 53d0 833d 2c15 503d
000001d0: e396 b93b 05d5 b5bd bb49 c93c aab9 923d
000001e0: 3843 c0bb 9e49 0c3d a189 473c 9e1e 3f3d
000001f0: 20c0 973c 097f 713d 5fb2 d53d 379f c3bc

model_4/sec9_bn2/FusedBatchNormV3 f4 [512]
-2.4262925e-05 0.000107200874 -3.839742e-05 -7.697564e-06 5.560018e-05 3.9515762e-05 7.5398486e-05 -4.0373943e-05
-5.549484e-05 -2.8419547e-05 -3.2557356e-05 -3.396371e-05 2.461947e-05 5.0153576e-05 3.527433e-05 -2.14006e-05
5.211011e-06 2.3783894e-05 4.4658278e-05 1.5940062e-05 3.9925042e-05 3.962977e-05 1.2113378e-06 -2.967471e-05
5.0444687e-05 3.4451086e-06 3.905108e-06 -1.5200468e-05 -2.9598035e-05 -1.9978106e-05 1.9035757e-05 -7.6130236e-06
3.7171238e-05 2.9916278e-05 7.4159816e-06 1.6332568e-05 -1.4918799e-05 4.006568e-05 3.6474165e-05 -1.9982454e-05
-4.200972e-05 7.4833355e-05 -3.3803608e-05 -3.701396e-05 5.957196e-05 3.3787906e-05 -2.605593e-05 2.0866471e-05
-1.014764e-05 -1.1988475e-05 9.079745e-06 4.1987347e-05 -9.9517805e-05 -6.129779e-05 6.766239e-05 6.701414e-05
1.0227082e-05 -2.1840879e-05 4.3316995e-06 1.13178085e-05 3.534575e-05 2.289892e-05 -4.607297e-05 1.9827912e-05
-1.8635048e-05 -7.3184733e-06 2.8781815e-05 1.5661131e-05 -4.2325315e-05 -2.454624e-05 3.4859175e-05 2.1642605e-05
-3.4685625e-05 -1.2643344e-05 -4.3713597e-05 8.392039e-06 6.300195e-05 -5.6580957e-05 -7.2790262e-06 -3.9672777e-06
1.8314371e-05 9.629206e-06 4.335127e-05 -4.516087e-05 7.419885e-05 3.2623997e-05 -5.772097e-05 6.182747e-05
7.864658e-06 6.308957e-05 -2.3706252e-05 -3.723136e-05 -1.2243553e-05 -1.7577771e-06 -2.4964516e-05 1.836006e-06
4.9496484e-05 7.991715e-06 -2.2334416e-05 -4.7506608e-05 7.670548e-05 -3.4686644e-05 3.9734266e-05 1.0093272e-06
-4.754913e-05 3.8798804e-05 2.8589904e-05 1.3021683e-05 -3.534558e-05 -2.5818666e-05 -5.892144e-05 -1.7907041e-06
-1.0924097e-05 9.0344285e-05 -1.4321968e-06 2.8163922e-06 5.9314723e-05 6.179655e-05 1.3312378e-05 5.620531e-05
-5.8897465e-05 -4.4595698e-05 -4.5088425e-05 -3.2080094e-05 -1.6210324e-05 1.8885454e-05 3.3731016e-05 -3.802809e-05
-3.349863e-05 -1.3387935e-05 1.9586718e-05 5.5344943e-05 -5.1942374e-05 -3.3785407e-05 -1.9908864e-05 -1.5023461e-05
4.307294e-06 6.48278e-06 1.587984e-05 4.0452174e-05 9.793708e-06 5.7227735e-05 1.3182085e-05 5.9812992e-05
8.711468e-06 7.621832e-06 -3.9521183e-08 -7.085584e-06 2.8817054e-05 2.243491e-05 2.496157e-05 -4.0648243e-05
1.5677537e-05 4.3267624e-05 -2.8589855e-05 -4.0887557e-05 -3.556765e-05 6.3593114e-07 2.1772292e-05 -5.0008566e-05
3.104633e-05 5.077447e-05 -2.6075148e-05 -2.502701e-05 3.6692036e-06 -6.287823e-06 -1.4593333e-05 -1.6921907e-05
-2.4379478e-06 2.2407055e-05 -8.592926e-06 -5.5184675e-05 2.3262754e-05 -4.7791633e-05 6.7189976e-05 -1.692097e-05
-1.8889345e-05 5.5946475e-07 5.863826e-05 4.8141803e-05 -2.5286647e-05 2.8261333e-05 -1.7366481e-05 2.5579398e-05
3.561676e-05 1.282846e-05 1.6881982e-05 -2.5064986e-05 -3.7654012e-05 -8.4960375e-06 8.2586346e-05 5.887232e-06
2.3654775e-07 -3.913947e-05 -2.5852765e-05 -3.8436883e-05 2.2335318e-05 -7.535391e-07 1.6146498e-05 2.1139964e-05
-2.9857021e-05 2.543971e-05 6.6711465e-05 3.793959e-05 -2.0914209e-05 -1.7340926e-06 -2.2119675e-06 -6.699363e-05
-3.768895e-05 -1.4400953e-05 2.126554e-05 -4.4598983e-07 -4.9166007e-05 1.8053379e-05 -4.329454e-06 -2.9108753e-05
-2.0435245e-05 -2.3297296e-05 3.2498203e-05 -1.0818394e-05 -8.887264e-06 -1.55675e-05 2.4054309e-05 -3.6684578e-06
-2.966707e-05 -3.443534e-05 -2.1079719e-05 -1.2559159e-05 -1.437772e-06 -7.100438e-05 5.1902454e-05 -1.6114911e-05
-3.315612e-05 1.9888757e-06 -5.803419e-05 5.7990055e-05 -2.265615e-05 1.3377498e-06 4.265917e-05 3.4144046e-05
-1.5592877e-05 -5.7724854e-05 -5.9452952e-05 8.1976395e-06 1.7136079e-05 -8.713112e-06 -6.473517e-06 -5.846096e-05
5.8681737e-05 2.865522e-05 1.4148551e-05 3.8921342e-05 8.6323416e-07 -9.361262e-06 -3.48951e-05 -1.6125343e-05
00000000: 3c88 cbb7 08d1 e038 ea0c 21b8 c924 01b7
00000010: 3d34 6938 babd 2538 411f 9e38 3157 29b8
00000020: 21c3 68b8 8366 eeb7 328e 08b8 4274 0eb8
00000030: e985 ce37 fe5b 5238 86f3 1338 7085 b3b7
00000040: 3eda ae36 8683 c737 764f 3b38 06b7 8537
00000050: 3075 2738 2438 2638 4095 a235 f4ed f8b7
00000060: 9294 5338 8432 6736 9f08 8336 8305 7fb7
00000070: 4c49 f8b7 a896 a7b7 faae 9f37 6073 ffb6
00000080: 50e8 1b38 b8f4 fa37 ccd6 f836 ec01 8937
00000090: c14b 7ab7 320c 2838 d6fb 1838 fe9f a7b7
000000a0: 9833 30b8 daef 9c38 59c8 0db8 703f 1bb8
000000b0: e8dc 7938 7db7 0d38 af92 dab7 680a af37
000000c0: c83f 2ab7 1c22 49b7 3555 1837 921b 3038
000000d0: 37b4 d0b8 008d 80b8 f8e5 8d38 f189 8c38
000000e0: fc94 2b37 ee36 b7b7 0459 9136 9ee1 3d37
000000f0: 3640 1438 0e17 c037 7a3e 41b8 1e54 a637
00000100: 7652 9cb7 3591 f5b6 7a70 f137 0660 8337
00000110: 7686 31b8 a6e8 cdb7 c135 1238 248d b537
00000120: 687b 11b8 c01e 54b7 1e59 37b8 88cb 0c37
00000130: ea1f 8438 5751 6db8 5c3e f4b6 a81e 85b6
00000140: d0a1 9937 208d 2137 12d4 3538 1d6b 3db8
00000150: 349b 9b38 c0d5 0838 6b19 72b8 5fa9 8138
00000160: 73f2 0337 f44e 8438 cadc c6b7 de28 1cb8
00000170: a969 4db7 c3ec ebb5 e46a d1b7 b06c f635
00000180: 729a 4f38 2814 0637 cb5a bbb7 d541 47b8
00000190: f1dc a038 807c 11b8 58a8 2638 3878 8735
000001a0: 7d6f 47b8 e6bb 2238 5ad4 ef37 b477 5a37
000001b0: 0740 14b8 2a95 d8b7 6a22 77b8 2058 f0b5
000001c0: a446 37b7 3877 bd38 e839 c0b5 4001 3d36
000001d0: b3c8 7838 c598 8138 3a58 5f37 febd 6b38
000001e0: ac08 77b8 440c 3bb8 541d 3db8 bd8d 06b8
000001f0: 68fb 87b7 346c 9e37 677a 0d38 5a80 1fb8
00000200: e180 0cb8 be9c 60b7 284e a437 2e22 6838
00000210: b3dc 59b8 ceb4 0db8 f601 a7b7 460d 7cb7
00000220: 6087 9036 a886 d936 b235 8537 31ab 2938
00000230: a84f 2437 d007 7038 a028 5d37 b6df 7a38
00000240: 7827 1237 0abf ff36 00be 29b3 b4c0 edb6
00000250: 27bc f137 9a32 bc37 9064 d137 b87d 2ab8
00000260: 4183 8337 427a 3538 3fd4 efb7 ae7e 2bb8
00000270: 792e 15b8 dbb4 2a35 a4a3 b637 4ac0 51b8
00000280: be37 0238 acf6 5438 f4bb dab7 18f1 d1b7
00000290: 703c 7636 fdfb d2b6 e3d5 74b7 85f3 8db7
000002a0: a09b 23b6 c9f6 bb37 562a 10b7 1876 67b8
000002b0: 6224 c337 e073 48b8 58e8 8c38 82f1 8db7
000002c0: 8f74 9eb7 202e 1635 5af2 7538 deeb 4938
000002d0: a91e d4b7 c012 ed37 3cae 91b7 5793 d637
000002e0: 3463 1538 d139 5737 c89d 8d37 a642 d2b7
000002f0: b0ee 1db8 348a 0eb7 3532 ad38 f08a c536
00000300: c0fd 7d34 b029 24b8 64de d8b7 4a37 21b8
00000310: bb5c bb37 d046 4ab5 5772 8737 ba55 b137
00000320: 7775 fab7 5c67 d537 72e7 8b38 5321 1f38
00000330: ec70 afb7 f8be e8b5 5071 14b6 ee7e 8cb8
00000340: 3414 1eb8 9f9b 71b7 6663 b237 6070 efb4
00000350: 9937 4eb8 5671 9737 ba45 91b6 922e f4b7
00000360: 5b6c abb7 906e c3b7 ae4e 0838 a680 35b7
00000370: 821a 15b7 f496 82b7 3cc8 c937 a02f 76b6
00000380: 8cdd f8b7 aa6e 10b8 5ad4 b0b7 2db5 52b7
00000390: 78f9 c0b5 30e8 94b8 d6b1 5938 822e 87b7
000003a0: 1d11 0bb8 a078 0536 bd69 73b8 593a 7338
000003b0: b60d beb7 bc8c b335 efec 3238 e435 0f38
000003c0: 73cd 82b7 971d 72b8 1f5d 79b8 9888 0937
000003d0: 73bf 8f37 882e 12b7 1637 d9b6 fa33 75b8
000003e0: 0921 7638 9e60 f037 905f 6d37 793f 2338
000003f0: 00b9 6735 500e 1db7 545c 12b8 e944 87b7

model_4/block_4_project_BN/FusedBatchNormV3 f4 [128]
-0.73747355 0.5777496 0.21651734 -1.02315 -0.32356727 1.3475703 0.48938206 -0.46581778
0.72199243 -0.022047482 -0.23251092 -0.4773774 0.25473514 0.48391473 -0.4904532 -0.3397134
0.18909341 0.7675212 1.0713377 0.34986135 -1.5557699 0.4848107 0.015386044 0.26419312
-0.39927396 0.69335926 0.3317019 0.73548734 0.7576406 0.59703416 -0.5843507 0.3587954
-1.0376755 -0.87456924 -0.80124694 -0.2596032 0.13899739 -1.805984 -1.6223611 -0.094851784
-0.7710961 0.58532274 0.6494924 0.66721606 0.90083015 0.114975624 -0.5326697 0.26287374
-0.005822548 1.0833803 -0.6766475 -0.32936424 -0.19985025 1.425576 1.392345 -0.7577132
-0.12885347 0.78344804 0.6308141 0.11561676 -0.261737 0.40284643 -1.0417485 -0.6085939
-0.1977027 0.4302053 -0.82715863 0.3119654 -0.26654768 0.22531104 -0.37319613 0.5019491
0.05293966 -0.5539851 0.4820876 -0.0074734413 -1.6897936 0.13248058 0.80612445 1.4630878
0.51007515 0.84216547 -0.24786219 -0.3310128 -0.17077322 -0.37991098 -0.8580416 0.2510555
0.27147228 -1.0859288 -1.1753367 0.7937483 0.31275117 0.47186124 0.14115046 -0.44862193
0.84414303 -0.8182865 1.0240971 -0.0058442582 -0.6592132 -1.0038384 -0.25005886 -1.7616007
0.029555358 -0.7636358 -0.2718762 -0.49121338 -1.0586444 0.18542868 -0.5895901 -0.73898613
0.6363738 -0.14681488 -1.2174808 -0.025933335 -0.30439195 -0.32489067 -0.77290255 0.09111489
0.9324773 0.7227334 0.41805595 -0.053202376 -0.8558051 -0.08272383 -0.5414535 -0.36328244
00000000: 11cb 3cbf 66e7 133f b9b6 5d3e 94f6 82bf
00000010: 9caa a5be 2f7d ac3f 4990 fa3e ab7f eebe
00000020: 7fd4 383f ec9c b4bc 5817 6ebe d06a f4be
00000030: a56c 823e acc3 f73e af1c fbbe eaee adbe
00000040: b4a1 413e 457c 443f 9821 893f 0721 b33e
00000050: 7823 c7bf 1c39 f83e bf15 7c3c 5244 873e
00000060: a36d ccbe fe7f 313f d5d4 a93e e648 3c3f
00000070: bcf4 413f 3bd7 183f 0298 15bf 08b4 b73e
00000080: 8dd2 84bf c5e3 5fbf 851e 4dbf b6ea 84be
00000090: 5555 0e3e 7c2a e7bf 87a9 cfbf a741 c2bd
000000a0: 8e66 45bf b6d7 153f 2245 263f acce 2a3f
000000b0: ce9c 663f 5778 eb3d 0b5d 08bf 6397 863e
000000c0: 13cb bebb 35ac 8a3f c538 2dbf 6ea2 a8be
000000d0: 8ba5 4cbe 4679 b63f 5c38 b23f 7ef9 41bf
000000e0: 2af2 03be 0d90 483f 087d 213f 7bc8 ec3d
000000f0: 6402 86be e341 ce3e 0458 85bf cfcc 1bbf
00000100: 9472 4abe de43 dc3e abc0 53bf eeb9 9f3e
00000110: f078 88be f0b7 663e 9013 bfbe bc7f 003f
00000120: 42d7 583d f8d1 0dbf 30d4 f63e c5e3 f4bb
00000130: 284b d8bf fda8 073e 2c5e 4e3f 7646 bb3f
00000140: 4994 023f 2898 573f 96cf 7dbe 827a a9be
00000150: 2ddf 2ebe b183 c2be 9da8 5bbf 598a 803e
00000160: 6afe 8a3e b7ff 8abf 6f71 96bf 1733 4b3f
00000170: ec20 a03e cc97 f13e bf89 103e c6b1 e5be
00000180: c219 583f 397b 51bf 9d15 833f 3181 bfbb
00000190: 32c2 28bf c77d 80bf b707 80be 227c e1bf
000001a0: 141e f23c a37d 43bf 5b33 8bbe 5280 fbbe
000001b0: a981 87bf 04e1 3d3e 60ef 16bf 322e 3dbf
000001c0: 65e9 223f a456 16be 69d6 9bbf 2572 d4bc
000001d0: 43d9 9bbe 1258 a6be f1dc 45bf 729a ba3d
000001e0: d5b6 6e3f 0e05 393f 6e0b d63e bcea 59bd
000001f0: 0b16 5bbf 1d6b a9bd b29c 0abf 2800 babe

model_4/block_4_expand_BN/FusedBatchNormV3 f4 [256]
-0.01219139 -0.17995262 0.0007337084 0.010376657 0.013679402 0.10135782 -0.05099195 -0.0010658047
-0.032550078 -0.04795041 0.06620688 0.026083698 -0.20999084 -0.023718523 -0.02061326 -0.049833693
-0.0037832877 0.121584676 -0.0002529276 0.05622216 -0.2590647 -0.0046538315 0.134128 0.07673011
0.02083789 0.016684445 -0.023846736 -0.22645783 0.06901917 -0.02934552 0.002481425 0.033845052
0.017494826 0.027196117 0.1723151 0.08065565 0.13849975 0.039029956 0.10836123 0.0047636074
-0.07932984 0.038154252 0.024703499 -0.0009400239 -0.09598978 -0.051008187 -0.060551606 0.059424188
0.046917096 0.027277365 0.020590836 0.042508643 -0.016957335 0.057292797 -0.02314049 0.01424742
0.02878793 0.009272104 0.06732983 -0.014971694 -0.046142943 0.056893937 0.12727323 -0.047328956
0.006191002 -0.07731211 -0.061619453 0.14079909 0.034229547 0.1050909 -0.08937131 0.06991898
-0.060862828 -0.09709373 -0.07757486 0.30180645 0.12409721 0.016118718 -0.0891322 -0.10904055
0.053047407 -0.051206764 -0.037379432 -0.008030252 -0.0338294 -0.27790812 0.06271853 0.07376753
0.002092849 -0.04696944 -0.18430038 0.07348544 0.094875865 -0.015734125 -0.12781371 -0.38097617
-0.06220597 -0.005664922 -0.08799004 -0.056123722 0.0044186763 0.79482573 -0.082838014 0.20076413
-0.10935083 -0.014836865 -0.06320826 0.37814885 0.13970825 0.18626831 -0.17776746 -0.03691057
-0.060072962 -0.013084245 -0.0134614 -0.11191017 0.010240001 0.14555141 -0.052877232 0.04309576
0.103056796 -0.074712746 0.12509319 -0.05270085 -0.04334612 0.17325057 -0.04994728 -0.011385786
0.07609864 -0.12081577 0.05194497 -0.023963904 -0.081824295 -0.057806425 0.08948349 0.02886286
0.009631506 -0.018723877 0.027509917 0.060813706 -0.09031627 0.0055559496 0.021219598 0.022210337
-0.029122528 0.0705615 0.07257327 0.014180578 0.11935 0.06807217 0.0630276 0.21185026
-0.10224836 -0.09170212 -0.12350075 -0.068596534 -0.040726382 0.1048398 0.07571005 0.10215333
-0.022761337 0.026448421 0.007887456 -0.012203376 0.057686005 -0.04437927 0.105289534 -0.2089394
-0.027293818 -0.033772893 -0.03558256 -0.10662941 0.10462646 0.041822642 0.032462522 -0.041110292
0.10785042 0.011024998 -0.07103785 -0.10231918 -0.04117988 -0.019757705 0.033916343 0.21984379
-0.023774475 0.0328702 -0.10843737 -0.002534047 0.06201094 0.15337497 -0.03433986 -0.004649213
-0.14958255 -0.046776656 -0.13150467 -0.036304034 0.009482383 0.12375303 0.008569389 0.05422799
0.001901157 -0.11104052 -0.021605227 -0.08515015 -0.006636245 0.02996434 0.051361877 -0.09513046
-0.014411058 0.17025302 0.10450562 0.07091365 0.01660014 0.12747772 0.0047026062 -0.04138535
-0.041740622 -0.09140519 0.020587103 -0.049635705 -0.0849511 -0.015106426 0.0016411449 0.09185848
0.12862147 0.06865124 0.03646732 -0.049351204 -0.0519236 -0.08037993 0.13471413 0.19279316
0.049727533 -0.06546988 -0.07205769 0.042145476 -0.041426625 0.015096038 0.1505125 -0.04601751
-0.0068476205 0.0062600686 -0.015952952 -0.13271004 -0.03593734 0.00808996 -0.041532155 0.006212839
0.58974886 -0.06550286 -0.05392787 -0.0033127686 0.14608201 -0.034136526 0.006886111 0.19440371
00000000: 65be 47bc 8045 38be 5656 403a db02 2a3c
00000010: 921f 603c b094 cf3d efdc 50bd 79b2 8bba
00000020: 3b53 05bd a667 44bd 7997 873d 7bad d53c
00000030: d707 57be 594d c2bc 24dd a8bc 6a1e 4cbd
00000040: 09f1 77bb 6301 f93d 5e9b 84b9 3549 663d
00000050: 21a4 84be 2b7f 98bb da58 093e ad24 9d3d
00000060: 39b4 aa3c d1ad 883c 3b5a c3bc 90e4 67be
00000070: ec59 8d3d 0466 f0bc 679f 223b 1ca1 0a3d
00000080: 4f51 8f3c 64ca de3c 5f73 303e ca2e a53d
00000090: e1d2 0d3e e0dd 1f3d 7eec dd3d 0918 9c3b
000000a0: af77 a2bd a247 1c3d fe5e ca3c f06b 76ba
000000b0: 4a96 c4bd f6ed 50bd f604 78bd c766 733d
000000c0: 242c 403d c874 df3c 1dae a83c 8b1d 2e3d
000000d0: 1cea 8abc daab 6a3d 2091 bdbc 036e 693c
000000e0: aad4 eb3c 06ea 173c 39e4 893d d64b 75bc
000000f0: 6200 3dbd 9e09 693d ea53 023e 02dc 41bd
00000100: e4dd ca3b d055 9ebd ae64 7cbd a32d 103e
00000110: 4834 0c3d e639 d73d 4e08 b7bd af31 8f3d
00000120: 4d4b 79bd 14d9 c6bd 91df 9ebd 6086 9a3e
00000130: ae26 fe3d 670b 843c f18a b6bd a750 dfbd
00000140: 3d48 593d 2fbe 51bd 2d1b 19bd 5191 03bc
00000150: b290 0abd f949 8ebe 9372 803d 6e13 973d
00000160: 2e28 093b 0763 40bd 3db9 3cbe 897f 963d
00000170: 474e c23d dae4 80bc 99e1 02be 4f0f c3be
00000180: b0cb 7ebd cfa0 b9bb 1f34 b4bd fde1 65bd
00000190: 8bca 903b b379 4b3f faa6 a9bd 1d95 4d3e
000001a0: 54f3 dfbd 5216 73bc 5573 81bd ba9c c13e
000001b0: ae0f 0f3e 1fbd 3e3e ac08 36be 8a2f 17bd
000001c0: 110f 76bd 4d5f 56bc 348d 5cbc 2931 e5bd
000001d0: adc5 273c 6e0b 153e cc95 58bd 2e85 303d
000001e0: 710f d33d ff02 99bd 6e18 003e d9dc 57bd
000001f0: b38b 31bd 9968 313e 8595 4cbd 738b 3abc
00000200: 9bd9 9b3d 426e f7bd 40c4 543d f34f c4bc
00000210: 7f93 a7bd 6ec6 6cbd 1f43 b73d ce71 ec3c
00000220: 77cd 1d3c d162 99bc 7a5c e13c cb17 793d
00000230: bdf7 b8bd af0e b63b b9d4 ad3c 74f2 b53c
00000240: 5e92 eebc 8c82 903d 4ba1 943d a855 683c
00000250: c66d f43d 6c69 8b3d 9d14 813d 46ef 583e
00000260: 9767 d1bd 52ce bbbd f6ed fcbd 577c 8cbd
00000270: b5d0 26bd 40b6 d63d df0d 9b3d c435 d13d
00000280: fc75 babc 5caa d83c 633a 013c abf0 47bc
00000290: 2948 6c3d 0ac7 35bd 0aa2 d73d 36f4 55be
000002a0: 4997 dfbc 7255 0abd 05bf 11bd 8560 dabd
000002b0: 6646 d63d 384e 2b3d 6cf7 043d 4463 28bd
000002c0: aee0 dc3d 31a2 343c 4b7c 91bd b88c d1bd
000002d0: 3cac 28bd e9da a1bc ddeb 0a3d bb1e 613e
000002e0: b0c2 c2bc e7a2 063d 6914 debd 4112 26bb
000002f0: 2fff 7d3d 540e 1d3e f4a7 0cbd 6d58 98bb
00000300: 2b2c 19be e198 3fbd 29a9 06be 8ab3 14bd
00000310: ff5b 1b3c 3b72 fd3d 9f66 0c3c 2b1e 5e3d
00000320: 3e30 f93a 3669 e3bd 72fd b0bc 3463 aebd
00000330: dc74 d9bb c777 f53c d560 523d c2d3 c2bd
00000340: 5c1c 6cbc cf56 2e3e 0b07 d63d 2d3b 913d
00000350: 04fd 873c 8589 023e 5218 9a3b af83 29bd
00000360: 37f8 2abd a532 bbbd 49a6 a83c cf4e 4bbd
00000370: d8fa adbd f180 77bc af1b d73a 4c20 bc3d
00000380: 59b5 033e 0599 8c3d c25e 153d 7d24 4abd
00000390: d7ad 54bd 3c9e a4bd 80f2 093e 926b 453e
000003a0: 19af 4b3d 1315 86bd fb92 93bd bca0 2c3d
000003b0: f7ae 29bd 5f55 773c f31f 1a3e db7c 3cbd
000003c0: 0162 e0bb 4321 cd3b c4af 82bc 24e5 07be
000003d0: 0833 13bd c08b 043c 9f1d 2abd 1295 cb3b
000003e0: c8f9 163f 5d26 86bd 78e3 5cbd 091b 59bb
000003f0: 8696 153e bed2 0bbd e3a4 e13b c411 473e

model_4/block_3_project_BN/FusedBatchNormV3 f4 [128]
0.19162665 1.5571451 -0.34403846 0.5570248 -0.3475762 -0.4377576 -0.7169894 -0.73252887
-0.038785048 -0.0210689 -0.15566963 -0.21671437 0.66071874 -0.036204536 0.68306434 -0.668087
-0.60874796 -0.73625684 -0.39564404 -0.6848955 -0.725234 -0.29866973 1.2300626 0.3295458
0.18943481 0.61721855 -0.8705452 0.50579005 0.3402865 0.6488264 -0.7252987 -0.111134194
0.9233026 -0.3349888 -0.6303269 0.5587734 0.46163002 0.50997347 1.1407213 0.7051221
0.73064345 -0.48866725 0.9706931 -0.51878667 -0.07436249 0.6212748 -1.1499606 -0.7692004
0.56311256 -0.33282617 0.11593061 0.98083276 -0.2983518 -0.49326614 -0.0789133 0.28391597
0.13212933 0.09153997 0.1895601 0.4636866 -0.34394702 -0.4884597 -0.17485596 -0.50190544
0.21594445 -0.15977083 0.47692195 0.15117691 0.4707112 0.33624083 -0.91667295 -0.94374347
0.16846253 -0.21334253 0.04112736 -0.471304 0.5068439 0.3729967 0.86497647 0.5591591
-0.5841165 0.07582974 0.3914131 -0.6226857 -0.5420051 -0.16324534 0.28276485 -0.30832
-0.38072014 -0.9048915 0.9616524 0.073381506 0.12167618 -0.757907 0.56822234 1.4592156
-0.31431162 0.23244728 -0.26708114 -0.044379674 -1.0122817 0.1212477 1.3297356 -0.4034483
-0.8273006 -1.00367 -0.58196795 -0.46101344 0.14458224 -0.47501993 0.4589504 -0.30612263
0.86516047 0.55196613 -0.1825769 0.8342439 -0.50851464 -0.012864068 -0.046290845 -0.2808035
0.6778136 0.355089 -1.6760612 -0.09873037 0.7709405 0.34874862 0.75485367 0.23709404
00000000: c739 443e 8850 c73f cf25 b0be 2d99 0e3f
00000010: 82f5 b1be c421 e0be 9e8c 37bf 0387 3bbf
00000020: 12dd 1ebd b098 acbc dc67 1fbe 5fea 5dbe
00000030: dd24 293f 354b 14bd 4edd 2e3f c007 2bbf
00000040: e8d6 1bbf 547b 3cbf db91 cabe 5055 2fbf
00000050: efa8 39bf 3deb 98be b172 9d3f 3aba a83e
00000060: 33fb 413e 0902 1e3f 0ddc 5ebf 757b 013f
00000070: 083a ae3e 7d19 263f 2dad 39bf 539a e3bd
00000080: 8f5d 6c3f a783 abbe 1b5d 21bf c60b 0f3f
00000090: c55a ec3e 9f8d 023f 2803 923f e282 343f
000000a0: 730b 3b3f 9832 fabe 587f 783f 34cf 04bf
000000b0: 5c4b 98bd de0b 1f3f e931 93bf 51ea 44bf
000000c0: 2528 103f 3168 aabe 076d ed3d db17 7b3f
000000d0: 91c1 98be 618d fcbe 4c9d a1bd 6f5d 913e
000000e0: e94c 073e 4f79 bb3d 0b1c 423e 5468 ed3e
000000f0: d319 b0be 6417 fabe 710d 33be e07c 00bf
00000100: 8b20 5d3e f79a 23be 1d2f f43e 1fce 1a3e
00000110: 0f01 f13e c227 ac3e 14ab 6abf 2c99 71bf
00000120: 7181 2c3e 7776 5abe 2a75 283d c24e f1be
00000130: 86c0 013f 6cf9 be3e 196f 5d3f 0d25 0f3f
00000140: a988 15bf 9f4c 9b3d 4c67 c83e 5468 1fbf
00000150: d9c0 0abf c929 27be 8ec6 903e 1edc 9dbe
00000160: c0ed c2be f8a6 67bf da2e 763f 0b49 963d
00000170: 5c31 f93d 3106 42bf 0577 113f 94c7 ba3f
00000180: 74ed a0be a906 6e3e dcbe 88be 76c7 35bd
00000190: 7292 81bf b750 f83d c734 aa3f c790 cebe
000001a0: f9c9 53bf 4278 80bf dafb 14bf f409 ecbe
000001b0: 5e0d 143e d035 f3be 8cfb ea3e 1bbc 9cbe
000001c0: 287b 5d3f a74d 0d3f 70f5 3abe 0291 553f
000001d0: 042e 02bf d0c3 52bc 789b 3dbd 7ac5 8fbe
000001e0: 3185 2d3f 3ace b53e 2c89 d6bf 2633 cabd
000001f0: 5b5c 453f 2e8f b23e 173e 413f c8c8 723e

model_4/block_3_expand_BN/FusedBatchNormV3 f4 [512]
0.0056445673 -0.0034227476 -0.06473143 -0.0041130283 -0.05719627 -0.049460795 0.014269522 -0.052767
0.009207841 -0.025583902 0.01743397 -0.003100632 -0.17025168 -0.0010992971 0.009175907 0.026634509
-0.108896814 0.010536443 -0.011059914 -1.7246073e-05 0.14691286 0.022249606 -0.011694 0.041437637
0.021092135 0.09107941 0.030019278 0.008085554 0.10452632 -0.05387252 -0.017848402 0.037354536
0.006070888 0.008700115 0.017802501 0.06828105 0.0022354564 0.031580877 -0.22331223 0.050897233
-0.03211154 -0.042919178 -0.00978297 0.03686596 0.08790084 0.096660376 0.005788472 0.004037687
-0.049443956 -0.046516407 0.0021963408 -0.036966257 -0.026843745 0.0008607008 -0.04544685 0.112113565
0.0066070887 0.054042023 0.13494967 0.082928725 -0.0010617969 0.055253945 -0.011293922 0.01659095
-0.03490852 0.03315337 0.016371727 -0.11522564 0.0029518548 0.028481463 0.041992765 0.015901318
-0.041982513 -0.06829428 0.011672825 0.006492968 -0.03540449 0.05883711 0.011947274 0.074138135
-0.008346671 0.019519268 -0.033156455 0.04694815 -0.032318 -0.043904133 0.104775116 -0.004077672
0.015625147 0.153072 0.095975086 0.0202411 -0.0071115964 -0.0041828007 0.012946259 -0.09520865
-0.071913496 -0.04562302 0.025509045 -0.053236384 -0.13579597 -0.036587536 -0.021177148 -0.09484468
0.011777716 0.031215489 0.043096185 0.088333875 -0.02946709 -0.04638828 -0.041321874 -0.02406724
-0.059602786 -0.015999021 0.112781346 -0.0067810086 0.03327728 -0.025182776 -0.020333491 -0.031051373
-0.018744957 -0.007959336 -0.06760473 -0.08603061 -0.005526442 0.008664573 -0.012544071 0.0499395
-0.005877877 -0.021307742 -0.1481157 -0.06632984 0.014065966 0.028922025 -0.11685 0.02943101
-0.007371611 -0.050934423 -0.014445629 -0.06694541 0.040401287 -0.01574391 -0.015644552 -0.009171268
-0.024011249 0.00087800797 -0.021666482 0.00891864 -0.024765827 0.09976456 -0.11192602 0.016620634
0.024738954 0.021815997 0.033907272 0.033865053 -0.028974408 0.0032163535 -0.038925573 0.07942786
-0.065911695 -0.029172102 -0.023077302 0.028505458 0.013480437 -0.068467125 -0.12555279 -0.036547534
0.005438673 0.037812088 -0.0020917894 -0.019935615 -0.0048064417 0.07528163 0.018733134 0.021486934
-0.010412965 -0.078461714 0.0073542423 0.044563547 -0.07554853 0.006220685 -0.003935134 -0.00020412276
-0.009333852 0.055771723 -0.022017868 0.118448034 0.04173942 0.037565973 -0.019377055 -0.0061747436
-0.06410095 0.028120685 -0.0424177 0.049433902 0.012647328 0.043005697 -0.006167385 -0.019864114
0.07964938 0.022561433 0.08769882 -0.059933394 -0.041138235 0.008396013 -0.038520724 0.009133646
0.018312937 -0.05802457 0.041123196 0.041628227 -0.031894404 0.017610602 -0.0022552547 -0.045334384
0.036998395 0.022094121 -0.10887644 -0.00990268 0.07953458 -0.03920521 -0.0072955904 -0.022900164
0.005702006 0.046163987 -0.0075845066 0.006853447 -0.0041750777 -0.03039123 -0.00246323 -0.017574236
-0.025322499 -0.018088983 -0.0048884084 -0.03746138 0.012275774 -0.035350256 0.025863783 -0.02881856
0.032115974 -0.069626965 0.009298214 0.021295376 -0.018601649 0.006023876 -0.0032669778 -0.03978239
-0.061253574 0.01457766 -0.009861399 -0.07989267 -0.00580379 -0.079164855 -0.03475766 0.13774484
00000000: 10f6 b83b 2d50 60bb e991 84bd 95c6 86bb
00000010: a346 6abd 6797 4abd b7ca 693c 3622 58bd
00000020: 7cdc 163c 5595 d1bc afd1 8e3c f933 4bbb
00000030: 7556 2ebe 4a16 90ba 8b56 163c 9d30 da3c
00000040: 4b05 dfbd 0ca1 2c3c a434 35bc a9ab 90b7
00000050: 5370 163e ce44 b63c 3198 3fbc 83ba 293d
00000060: 6ac9 ac3c d787 ba3d fdea f53c 4679 043c
00000070: e511 d63d 6ea9 5cbd d036 92bc 1201 193d
00000080: 4dee c63b ed8a 0e3c 8dd6 913c efd6 8b3d
00000090: bc80 123b f35a 013d f6ab 64be 9e79 503d
000000a0: 6487 03bd 05cc 2fbd c048 20bc c300 173d
000000b0: 5b05 b43d e0f5 c53d 39ad bd3b 934e 843b
000000c0: bf85 4abd fd87 3ebd 7cf0 0f3b ee69 17bd
000000d0: 6ae7 dbbc a7a0 613a 7a26 3abd cc9b e53d
000000e0: 4780 d83b 2b5b 5d3d 3f30 0a3e 89d6 a93d
000000f0: fe2b 8bba f651 623d 240a 39bc bee9 873c
00000100: 3cfc 0ebd d4cb 073d 001e 863c 6cfb ebbd
00000110: e873 413b f551 e93c 9b00 2c3d 7b43 823c
00000120: dbf5 2bbd dfdd 8bbd 603f 3f3c f7c2 d43b
00000130: 4c04 11bd 2eff 703d 80be 433c bcd5 973d
00000140: 7ac0 08bc dfe6 9f3c 10cf 07bd b44c 403d
00000150: e15f 04bd d2d4 33bd 5694 d63d fe9d 85bb
00000160: 4f00 803c e8be 1c3e 968e c43d aad0 a53c
00000170: 6508 e9bb e00f 89bb 8c1c 543c c1fc c2bd
00000180: 6247 93bd 34df 3abd 58f8 d03c 650e 5abd
00000190: 190e 0bbe d0dc 15bd b37b adbc ed3d c2bd
000001a0: 52f7 403c a0b7 ff3c a085 303d 64e8 b43d
000001b0: f764 f1bc a301 3ebd 2041 29bd a928 c5bc
000001c0: 0d22 74bd 6110 83bc e8f9 e63d 3933 debb
000001d0: c24d 083d 1c4c cebc 6c92 a6bc 735f febc
000001e0: 068f 99bc e067 02bc 5974 8abd d130 b0bd
000001f0: 2817 b5bb daf5 0d3c a685 4dbc 5c8d 4c3d
00000200: 359b c0bb 938d aebc a4ab 17be f0d7 87bd
00000210: f074 663c e2ed ec3c 0e4f efbd 4d19 f13c
00000220: 8e8d f1bb 9da0 50bd 5cad 6cbc ad1a 89bd
00000230: d27b 253d 5ff9 80bc 0129 80bc 1643 16bc
00000240: 3db3 c4bc 1e2a 663a e87d b1bc 7d1f 123c
00000250: b4e1 cabc 5d51 cc3d 7839 e5bd ff27 883c
00000260: 59a9 ca3c 76b7 b23c 5ae2 0a3d 15b6 0a3d
00000270: bd5b edbc 75c9 523b 6c70 1fbd 13ab a23d
00000280: b6fc 86bd 55fa eebc 9c0c bdbc 4784 e93c
00000290: 0ddd 5c3c 7e38 8cbd e990 00be deb2 15bd
000002a0: e536 b23b d9e0 1a3d 6716 09bb 0450 a3bc
000002b0: 5b7f 9dbb 412d 9a3d 3b76 993c 5e05 b03c
000002c0: 249b 2abc 89b0 a0bd dbfb f03b 4488 363d
000002d0: 30b9 9abd e3d6 cb3b 4cf2 80bb c909 56b9
000002e0: 03ed 18bc e470 643d d15e b4bc e294 f23d
000002f0: f4f6 2a3d c7de 193d a1bc 9ebc 8155 cabb
00000300: 5c47 83bd 5a5d e63c 2fbe 2dbd 347b 4a3d
00000310: bd36 4f3c be26 303d c617 cabb 11ba a2bc
00000320: 371f a33d c1d2 b83c 709b b33d b87c 75bd
00000330: 9180 28bd 6e8f 093c e8c7 1dbd 4aa5 153c
00000340: 0305 963c 2cab 6dbd cc70 283d 5c82 2a3d
00000350: b5a3 02bd 1c44 903c e5cc 13bb 8cb0 39bd
00000360: a18b 173d bbfe b43c 9cfa debd da3e 22bc
00000370: 07e3 a23d a495 20bd d90f efbb 2099 bbbc
00000380: e5d7 ba3b 7316 3d3d 7487 f8bb e192 e03b
00000390: 17cf 88bb 07f7 f8bc 246e 21bb d8f7 8fbc
000003a0: 2171 cfbc 592f 94bc f12e a0bb 1b71 19bd
000003b0: 5420 493c 6ecb 10bd 49e0 d33c e714 ecbc
000003c0: 0a8c 033d 9598 8ebd 8957 183c a473 ae3c
000003d0: 7c62 98bc ef63 c53b cb1a 56bb dcf2 22bd
000003e0: 07e5 7abd 23d7 6e3c b591 21bc c59e a3bd
000003f0: b82d bebb 2f21 a2bd 0c5e 0ebd fc0c 0d3e

model_4/block_2_project_BN/FusedBatchNormV3 f4 [128]
-1.5447623 -0.18124667 -0.07727623 1.0068227 0.53931016 0.8315071 1.8276789 -0.45993125
1.1656052 0.36690956 0.7546981 -0.41319656 0.88888156 -0.43202063 -0.85459423 0.44624636
0.7471232 -0.3638368 0.3703096 0.3050853 1.3698744 0.30629525 -0.8543436 0.18964696
0.29399124 -0.3063949 0.18365413 -0.17378344 1.0219455 -0.37962955 -1.1000615 0.62472844
1.1269873 0.18312955 -0.7105508 0.29903463 -0.027711634 0.8558744 0.47915092 0.73159933
0.8293234 -0.77401406 -0.8181326 -0.55667365 0.05558242 0.3312342 -0.53755885 -0.5542394
0.9196458 0.43681464 0.21183693 0.46618882 -0.17030004 0.04606501 0.05381993 0.030589063
0.28139442 -0.74702394 -0.5132663 0.1193841 1.4602861 0.6015715 0.44582438 0.5370878
0.06345809 0.058028013 0.20186889 0.28973374 0.33836335 -0.33677363 -0.123461396 -0.8788558
-0.37999752 0.77998275 0.45390385 -0.8789232 -0.5564759 -0.35144827 0.062672324 -1.1118649
0.29060236 -0.5180201 0.28453562 -1.6924071 -0.1183174 -0.16166878 0.33612293 1.0445458
-0.2885561 0.098276794 0.07283363 -1.4501864 0.3920097 -0.32737383 -0.13082805 -0.68639666
0.26515973 -0.6591258 -0.38969508 -0.55765074 0.14007552 1.5709239 -0.37300572 -1.069819
-0.094349906 0.91143507 -0.5651508 -0.9150982 -1.7486707 0.065909736 0.11520596 -0.10961966
0.22348057 -0.09681108 0.11933172 1.1681659 -0.122001685 1.0574143 -0.49043155 0.044269633
-0.38045472 -0.063010715 0.7428826 -0.079288155 -1.6211208 -0.8718964 -0.7041869 0.7949994
00000000: c5ba c5bf ba98 39be 0043 9ebd 91df 803f
00000010: 3b10 0a3f a6dd 543f 62f1 e93f 1c7c ebbe
00000020: 8d32 953f 92db bb3e e533 413f 808e d3be
00000030: be8d 633f cf31 ddbe b0c6 5abf 677a e43e
00000040: 7743 3f3f d148 babe 3899 bd3e 2434 9c3e
00000050: 0b58 af3f bbd2 9c3e 43b6 5abf d032 423e
00000060: 0586 963e cbdf 9cbe d40f 3c3e 49f4 31be
00000070: 1ccf 823f ce5e c2be d1ce 8cbf 34ee 1f3f
00000080: 1f41 903f 5086 3b3e a8e6 35bf 111b 993e
00000090: 8203 e3bc 961a 5b3f 4553 f53e 184a 3b3f
000000a0: 8a4e 543f c925 46bf 2371 51bf 2a82 0ebf
000000b0: 64aa 633d 8797 a93e 759d 09bf a2e2 0dbf
000000c0: e86d 6b3f 2ba6 df3e c8eb 583e 4db0 ee3e
000000d0: 2263 2ebe aaae 3c3d 4972 5c3d ea95 fa3c
000000e0: ee12 903e f63c 3fbf 6c65 03bf a77f f43d
000000f0: a8ea ba3f 9700 1a3f 1843 e43e 967e 093f
00000100: 51f6 813d c8ae 6d3d b8b6 4e3e fb57 943e
00000110: f63d ad3e 986d acbe 54d9 fcbd b2fc 60bf
00000120: 098f c2be f3ac 473f 1666 e83e 1c01 61bf
00000130: 3475 0ebf 07f1 b3be 595a 803d 9751 8ebf
00000140: d5c9 943e f79c 04bf a7ae 913e cca0 d8bf
00000150: 6550 f2bd 808c 25be 4e18 ac3e adb3 853f
00000160: a0bd 93be 5845 c93d cc29 953d b59f b9bf
00000170: 7fb5 c83e 8b9d a7be caf7 05be b1b7 2fbf
00000180: 04c3 873e 78bc 28bf 1d86 c7be 33c2 0ebf
00000190: f56f 0f3e 0914 c93f 9bfa bebe d4ef 88bf
000001a0: 863a c1bd cf53 693f b9ad 10bf e043 6abf
000001b0: 71d4 dfbf affb 863d 1af1 eb3d 4680 e0bd
000001c0: 17d8 643e e344 c6bd 3064 f43d 7686 953f
000001d0: 05dc f9bd 5a59 873f d819 fbbe 1354 353d
000001e0: f6ca c2be c30b 81bd 8e2d 3e3f d461 a2bd
000001f0: e380 cfbf 9a34 5fbf 9845 34bf 1585 4b3f

model_4/block_2_expand_BN/FusedBatchNormV3 f4 [256]
-0.08611404 0.04792028 -0.00022436857 0.022745294 -0.007848198 -0.08065437 -0.08228435 -0.08046336
-0.107743695 -0.08541593 -0.25439602 -0.09759378 0.008683146 0.009958568 0.12665804 0.028862812
-0.042062577 -0.0086646 0.10321112 -0.17326687 -0.013360038 -0.3006523 -0.33846334 0.06992033
-0.052369986 -0.07628373 -0.04345105 0.021858629 -0.16238564 0.09231408 -0.0008791802 0.12585123
-0.04587998 -0.05643883 -0.10844126 -0.033450954 -0.018481446 -0.101128586 -0.0057597854 0.03859168
-0.16864268 0.007143741 0.19771147 -0.06039544 -0.008984698 0.0028780876 0.0820344 -0.065716244
0.045051932 0.06340893 0.030658381 -0.0062258905 0.049724616 -0.048502967 -0.09798206 0.1679827
-0.0882288 0.049689375 -0.04877915 0.0041569537 -0.077148646 -0.10869845 -0.009856553 0.006493592
-0.12947254 -0.029616313 0.022924647 0.014037774 0.009886876 0.20227689 0.051419962 0.0018117621
0.23323223 -0.17837696 0.03907624 -0.05431728 0.07637987 -0.033285264 0.024839884 -0.00028182787
0.01841051 -0.01430622 -0.026933154 -0.05211593 -0.038844794 0.18191579 -0.14115816 0.012224285
-0.22014633 -0.06814833 0.039432805 -0.009927732 -0.35479847 -0.00257721 0.010903418 0.042413812
0.119626395 0.058837593 -0.15545875 0.09678487 -0.29004636 0.048856024 -0.038760595 0.018503906
-0.08192709 -0.025935937 0.017197963 0.06324298 -0.0055485414 -0.10183 -0.26045543 0.001333594
0.18671863 -0.03852552 0.0450249 0.14743501 -0.043162443 -0.14087573 -0.031466726 -0.019759832
-0.060089923 -0.0066410014 -0.032279 -0.11157059 0.07031588 -0.055693623 -0.03217315 0.09564538
0.25843728 -0.059081193 -0.056881752 -0.19255295 0.019631382 -0.03597603 -0.049370334 0.16914827
0.06713589 -0.06320576 0.0026167356 0.05893848 0.118681304 0.03475454 0.026420416 0.016979733
0.0322842 -0.03196468 0.062157903 0.016628487 0.054031566 0.11996609 -0.033583596 -0.034105137
-0.07264549 0.13203236 0.10702787 0.039482526 0.065947086 0.124711044 0.04380028 -0.0031436298
-0.03882249 0.22290769 0.014547219 -0.13587265 -0.0013742642 0.30525368 0.073791966 0.03838414
0.0042556636 -0.07881728 -0.20278387 0.04321698 -0.08360378 -0.071676694 0.0942745 -0.101268046
0.04306216 0.02727156 0.10953714 0.05147372 -0.31053928 0.0437271 -0.05545251 0.033073526
-0.03688436 0.14110114 0.03294136 0.03948774 -0.0008830929 -0.09074345 0.041410137 -0.044355895
0.00077856984 -0.07732533 0.024181845 0.07875701 0.080345586 -0.018959979 -0.014468319 -0.10092925
-0.023700178 -0.068595506 -0.10018586 0.0015495338 0.029683301 -0.131306 0.14109983 -0.14883037
0.106964275 0.11799489 0.16065449 0.13418354 0.0025269382 -0.06448971 -0.09450621 0.04379462
-0.008011408 0.051460557 0.0034385694 -0.120528646 -0.23216118 0.031834442 -0.06164519 -0.08530596
0.020732088 -0.011890587 0.014980795 -0.0035366474 -0.12086768 0.06816132 -0.019484032 0.056622032
-0.062761895 0.14438932 -0.18107997 0.13971728 0.018077176 0.045280572 0.002600081 0.2797829
-0.032576293 0.10232765 -0.036374755 -0.008928629 0.0067631947 -0.037774067 0.08441945 0.012482776
-0.079282776 -0.08609349 0.008583195 0.05090955 0.09357235 0.025359593 0.11129595 0.12461007
00000000: 8f5c b0bd 0e48 443d 7b44 6bb9 5754 ba3c
00000010: ba95 00bc 1e2e a5bd b384 a8bd f9c9 a4bd
00000020: baa8 dcbd 8cee aebd 3240 82be 3fdf c7bd
00000030: c143 0e3c 4329 233c a5b2 013e b471 ec3c
00000040: cf49 2cbd f7f5 0dbc 5a60 d33d df6c 31be
00000050: 10e4 5abc 19ef 99be 114b adbe 6432 8f3d
00000060: e981 56bd a53a 9cbd baf9 31bd de10 b33c
00000070: 6c48 26be 2a0f bd3d c978 66ba 25df 003e
00000080: a5ec 3bbd 672c 67bd 7416 debd de03 09bd
00000090: 6766 97bc 811c cfbd 95bc bcbb 4f12 1e3d
000000a0: abb0 2cbe 0b16 ea3b e074 4a3e 3561 77bd
000000b0: 8e34 13bc 4c9e 3c3b a701 a83d 3d96 86bd
000000c0: 6088 383d 8bdc 813d 4927 fb3c 8e02 ccbb
000000d0: 0aac 4b3d 0cab 46bd d1aa c8bd a803 2c3e
000000e0: 4db1 b4bd 1687 4b3d a5cc 47bd 0e37 883b
000000f0: 1c00 9ebd 4b9d debd 617d 21bc 33c8 d43b
00000100: 7394 04be e99d f2bc 78cc bb3c b1fe 653c
00000110: 90fc 213c ac21 4f3e bd9d 523d a678 ed3a
00000120: 6ed4 6e3e 73a8 36be 680e 203d cc7b 5ebd
00000130: 0d6d 9c3d 2156 08bd 037d cb3c 4cc2 93b9
00000140: a3d1 963c a364 6abc eba2 dcbc 8377 55bd
00000150: b81b 1fbd 2248 3a3e c48b 10be 5e48 483c
00000160: 0a6e 61be 5a91 8bbd 4b84 213d eda7 22bc
00000170: 25a8 b5be 69e6 28bb 40a4 323c 1bba 2d3d
00000180: affe f43d b0ff 703d 9430 1fbe 2537 c63d
00000190: f580 94be 411d 483d 6ec3 1ebd 8195 973c
000001a0: 64c9 a7bd 9a77 d4bc bee2 8c3c 8985 813d
000001b0: 8ad0 b5bb 3f8c d0bd 6a5a 85be fdcb ae3a
000001c0: 2b33 3f3e f0cc 1dbd 086c 383d 34f9 163e
000001d0: 1acb 30bd ba41 10be 41e3 00bd 5fdf a1bc
000001e0: da20 76bd c29c d9bb fc36 04bd 1f7f e4bd
000001f0: c601 903d ff1e 64bd fec7 03bd bae1 c33d
00000200: e451 843e 1fff 71bd d7fc 68bd 9a2c 45be
00000210: fed1 a03c 9a5b 13bd 8c38 4abd 3435 2d3e
00000220: 8b7e 893d 0672 81bd 8a7d 2b3b 7a69 713d
00000230: 2f0f f33d c75a 0e3d a16f d83c 1519 8b3c
00000240: 703c 043d 65ed 02bd 4999 7e3d 7738 883c
00000250: 3450 5d3d c8b0 f53d f48e 09bd d4b1 0bbd
00000260: 29c7 94bd 7e33 073e 6e31 db3d 6eb8 213d
00000270: 440f 873d 8168 ff3d ec67 333d 5b05 4ebb
00000280: 5504 1fbd ea41 643e 7557 6e3c 3322 0bbe
00000290: a820 b4ba 364a 9c3e 3e20 973d b038 1d3d
000002a0: 1873 8b3b f46a a1bd 93a6 4fbe 4a04 313d
000002b0: 7538 abbd 3bcb 92bd fd12 c13d 9f65 cfbd
000002c0: f361 303d 9b68 df3c 0255 e03d 1cd6 523d
000002d0: 01ff 9ebe 301b 333d 2c22 63bd 1b78 073d
000002e0: 0e14 17bd d17c 103e 85ed 063d e5bd 213d
000002f0: 5c7f 67ba b4d7 b9bd ad9d 293d 87ae 35bd
00000300: f018 4c3a be5c 9ebd 0119 c63c 5b4b a13d
00000310: 3a8c a43d f551 9bbc 870c 6dbc ffb3 cebd
00000320: e026 c2bc cd7b 8cbd 3f2e cdbd ba19 cb3a
00000330: 652a f33c 1475 06be 797c 103e fd66 18be
00000340: 1610 db3d 4ea7 f13d 9c82 243e 6967 093e
00000350: fd9a 253b 2e13 84bd 798c c1bd fd61 333d
00000360: 4842 03bc 4ec8 523d 9f59 613b b9d7 f6bd
00000370: a9bb 6dbe d564 023d ab7f 7cbd e4b4 aebd
00000380: 57d6 a93c bdd0 42bc 0272 753c 19c7 67bb
00000390: 7989 f7bd 2a98 8b3d fa9c 9fbc 81ec 673d
000003a0: 4f89 80bd cbda 133e 076d 39be 0c12 0f3e
000003b0: 9616 943c 1f78 393d 1f66 2a3b b43f 8f3e
000003c0: b86e 05bd 2991 d13d b2fd 14bd 6249 12bc
000003d0: ca9d dd3b fbb8 1abd 1be4 ac3d 8f84 4c3c
000003e0: 025f a2bd c951 b0bd 87a0 0c3c 8886 503d
000003f0: dca2 bf3d ecbe cf3c 22ef e33d 9033 ff3d

model_4/block_1_project_BN/FusedBatchNormV3 f4 [128]
-0.021471942 -0.14432982 0.75873876 0.22473791 -0.25636056 0.79872763 -0.12334367 0.45630673
-0.718609 0.45507327 -0.2193128 0.41587663 -0.73747367 -1.0152448 0.91142 -0.19421926
0.4298212 1.093096 0.5764827 -0.267385 0.55316263 0.4253662 0.085090026 -0.023666764
0.17980994 -0.16155683 0.03483953 0.31991565 -0.070131965 0.63948035 0.24081957 -0.13268673
-1.250163 0.9397073 -0.33469734 -0.24954458 -0.26817155 -0.38086197 -0.08320487 -0.24451908
0.015248486 -0.15862696 -0.24411818 0.86781645 -1.1058208 -0.11631479 0.12276293 -0.5607394
1.1532009 -0.8010848 0.020341631 -0.7620537 1.3414737 0.17938446 0.37668204 0.15712875
0.34929982 -1.250493 -0.19630374 -0.13722503 0.6125685 1.1160879 0.47554612 0.4470951
-0.12269165 -0.03705464 -0.86637735 0.3155111 0.25872663 1.0747747 -0.21175161 -0.27760655
1.5381091 0.8245865 0.8411606 0.20565464 0.0063894414 -0.10579621 -1.1892922 0.8517838
-0.3859413 0.5943465 -0.7758753 0.65407926 -0.8203161 -0.2886593 -0.36808556 -2.082503
-0.50474614 -0.33530325 0.03310657 0.07755272 0.70503443 0.13281825 -0.12792629 -0.34967878
-0.01613305 0.4945323 -0.56170064 1.0930583 -0.2842196 0.8081519 -1.0853674 -0.39451054
-0.3305222 -0.76307595 -0.31519264 0.3225626 -0.11820915 -0.86372906 -0.4306707 -0.6007433
0.7179669 0.97810227 -0.5411384 -0.77989763 -0.97512037 -0.16580889 -0.43860477 -0.29266796
-0.57312477 -0.6688317 0.36063775 -0.7199269 1.138312 0.8545705 0.09617953 0.69003314
00000000: ede5 afbc 32cb 13be b43c 423f b221 663e
00000010: b141 83be 6a79 4c3f 9b9b fcbd 09a1 e93e
00000020: c2f6 37bf 5dff e83e 8993 60be c8ed d43e
00000030: 13cb 3cbf 8bf3 81bf d252 693f 6ae1 46be
00000040: 8611 dc3e 92ea 8b3f 5f94 133f b0e6 88be
00000050: 119c 0d3f 99c9 d93e ae43 ae3d cde0 c1bc
00000060: 1920 383e 276f 25be e5b3 0e3d fccb a33e
00000070: 59a1 8fbd fcb4 233f 6899 763e 08df 07be
00000080: 5705 a0bf a890 703f 735d abbe 9d88 7fbe
00000090: c84d 89be 5700 c3be 5167 aabd 3663 7abe
000000a0: c9d4 793c 1b6f 22be 1efa 79be 3829 5e3f
000000b0: 898b 8dbf 7336 eebd 226b fb3d 9e8c 0fbf
000000c0: 169c 933f e513 4dbf 7ea3 a63c f415 43bf
000000d0: 69b5 ab3f 8fb0 373e 78dc c03e 5ce6 203e
000000e0: 6dd7 b23e 2810 a0bf d903 49be b884 0cbe
000000f0: 4ad1 1c3f f8db 8e3f c87a f33e a6e9 e43e
00000100: c345 fbbd 9bc6 17bd e8ca 5dbf ac8a a13e
00000110: d177 843e 3892 893f 6ad5 58be 7222 8ebe
00000120: c2e0 c43f 1a18 533f 4d56 573f 2197 523e
00000130: 855e d13b afab d8bd ba3a 98bf 810e 5a3f
00000140: 199a c5be 1827 183f c39f 46bf bd71 273f
00000150: 3c00 52bf 27cb 93be b675 bcbe bb47 05c0
00000160: 0b37 01bf deac abbe c19a 073d f6d3 9e3d
00000170: 237d 343f 8201 083e 1cff 02be 1909 b3be
00000180: 7529 84bc 5633 fd3e 9dcb 0fbf 56e9 8b3f
00000190: 3b85 91be 0be3 4e3f 52ed 8abf 49fd c9be
000001a0: 353a a9be f258 43bf ee60 a1be ed26 a53e
000001b0: a417 f2bd 591d 5dbf df80 dcbe 50ca 19bf
000001c0: aecc 373f e964 7a3f 0c88 0abf 5fa7 47bf
000001d0: 7da1 79bf cec9 29be ce90 e0be 93d8 95be
000001e0: 4eb8 12bf 8e38 2bbf 83a5 b83e 214d 38bf
000001f0: 35b4 913f 22c5 5a3f c6f9 c43d 03a6 303f

model_4/block_1_expand_BN/FusedBatchNormV3 f4 [256]
0.15313086 0.0037826959 -0.01426072 0.01448247 -0.007402037 -0.2322724 -0.025056768 0.08693812
0.085980676 -0.024130289 -0.016493566 0.072276995 0.03285176 0.075689 0.047457177 -0.03683975
0.281489 -0.10980489 -0.03909903 -0.06071369 0.06133544 0.05363558 -0.033036575 0.024512043
0.008007993 0.09484231 0.1551273 0.02195526 -0.14803103 0.003171879 -0.10205528 -0.15897132
-0.012439093 -0.019141661 -0.01617402 0.02305864 -0.004876683 0.018725114 0.26139197 0.087965555
-0.089921154 -0.0007883256 -0.06822933 -0.23312615 0.012049657 -0.070145585 -0.041642815 -0.016645402
0.048654605 0.039832536 -0.036470015 -0.07578823 0.008133969 -0.011715265 0.0028734526 0.0144342985
0.021881813 -0.02099827 -0.031101217 -0.014751003 -0.07936537 0.022844547 -0.025520962 -0.2118673
0.0458184 -0.07673532 0.036951154 0.022078495 0.02334868 0.056641657 -0.025682217 -0.0105526615
-0.0043731383 -0.011170261 0.0033152841 0.044858806 -0.008390775 -0.030669365 -0.006797073 -0.12718828
0.0074620014 0.007161175 0.10339776 0.0012822857 0.014202058 0.010797023 0.042843115 0.084632866
-0.026564434 -0.010003537 -0.016801607 0.05878355 0.0065570036 -0.008284741 -0.009511186 -0.04186364
-0.0007392091 -0.008631256 -0.06360409 0.048168663 -0.051525507 0.02774192 0.06018311 0.04952282
-0.010502989 -0.03977608 0.0071169827 -0.15738383 -0.017746087 -0.22216535 0.03763095 -0.108496785
-0.011704853 0.0097399615 -0.015859526 0.03195243 -0.101793565 0.09973751 -0.02452235 0.03610409
-0.010288662 0.004242195 0.05767478 -0.060791254 -0.0269509 -0.17820847 -0.072086185 0.015221298
-0.04545406 0.0053221392 -0.046482585 -0.12296939 0.053850133 0.05283907 0.06596725 0.006903869
0.2684767 -0.00747313 0.010295315 -0.04892796 -0.1322521 0.018146604 0.11691087 -0.3900838
0.10781373 -0.049547542 -0.07882118 0.10135432 0.040565487 -0.01512473 -0.024951862 -0.11933686
-0.017864589 0.0017161461 -0.0014516708 -0.027350128 -0.07139803 0.030534742 -0.0049335132 -0.015085176
-0.0017176847 0.01756537 0.0032259645 -0.0073667765 0.08976907 -0.12713698 0.03253549 0.14841238
-0.058293384 0.014969767 0.019271998 0.05209311 -0.029956125 -0.02504131 -0.03378095 -0.01667564
0.09747301 0.15356663 0.045192238 0.14576909 0.06604979 -0.17987761 -0.04969922 -0.03535912
-0.025269488 0.068632245 0.010974265 -0.022645436 -0.15703891 0.048373897 -0.010891248 0.05241064
-0.006221584 0.020656554 -0.009507529 0.0070449407 0.020835292 -0.011187334 -0.01577873 -0.03858754
-0.1278711 0.017017348 0.024694446 0.036721293 -0.0080782315 -0.016092457 -0.05603721 0.0039708805
-0.1968799 -0.051782142 0.0020205185 -0.011360807 0.111611776 0.020362187 -0.02864228 0.048825756
0.01450476 -0.015455354 -0.021891275 0.0649223 -0.11120831 0.23948115 -0.0053695054 -0.003207317
-0.22687714 0.061296307 -0.012468506 0.0078115365 -0.004044182 0.06283013 -0.009477608 0.07876285
-0.039624017 0.023632394 -0.18834075 0.0073348894 -0.04235185 0.042581905 0.11908709 0.038622595
0.017283026 0.031624746 -0.010299754 0.029737951 0.00025999898 -0.038161267 -0.006973346 -0.042804334
-0.07094852 -0.02601065 -0.010963878 -0.049968623 -0.066780336 -0.086637385 0.07073543 -0.058147527
00000000: 56ce 1c3e 1be7 773b cca5 69bc e247 6d3c
00000010: c98c f2bb d1d8 6dbe da43 cdbc 9d0c b23d
00000020: a316 b03d e2ac c5bc 841d 87bc f605 943d
00000030: 918f 063d d602 9b3d 7562 423d 47e5 16bd
00000040: 541f 903e 63e1 e0bd 4e26 20bd ebae 78bd
00000050: df3a 7b3d fbb0 5b3d 5c51 07bd 7bcd c83c
00000060: f533 033c af3c c23d b1d9 1e3e 84db b33c
00000070: 7295 17be 4ddf 4f3b 5c02 d1bd 61c9 22be
00000080: 56cd 4bbc f9ce 9cbc 617f 84bc 79e5 bc3c
00000090: 95cc 9fbb 6965 993c 2bd5 853e 4927 b43d
000000a0: 9528 b8bd a3a7 4eba d2bb 8bbd 9fb8 6ebe
000000b0: ed6b 453c 7da8 8fbd a891 2abd f05b 88bc
000000c0: 0d4a 473d 7127 233d 9561 15bd dc36 9bbd
000000d0: 5744 053c 62f1 3fbc 8950 3c3b d67d 6c3c
000000e0: 7d41 b33c 9004 acbc fbc7 febc 31ae 71bc
000000f0: 508a a2bd 7d24 bb3c 5611 d1bc bef3 58be
00000100: 13ac 3b3d 6827 9dbd 185a 173d f6dd b43c
00000110: bb45 bf3c 1501 683d 8363 d2bc 12e5 2cbc
00000120: 8b4c 8fbb 7803 37bc 3d45 593b debd 373d
00000130: 7679 09bc 523e fbbc fbb9 debb a53d 02be
00000140: ce83 f43b 4aa8 ea3b 34c2 d33d 5e12 a83a
00000150: c0af 683c ffe5 303c 437c 2f3d ff53 ad3d
00000160: a89d d9bc e0e5 23bc 86a3 89bc 05c7 703d
00000170: 22dc d63b b9bc 07bc ced4 1bbc 3579 2bbd
00000180: 7cc7 41ba 1d6a 0dbc dc42 82bd 814c 453d
00000190: 690c 53bd 0643 e33c 9182 763d 71d8 4a3d
000001a0: bb14 2cbc 3eec 22bd 9435 e93b 3a29 21be
000001b0: 3e60 91bc 507f 63be e922 1a3d 9033 debd
000001c0: b6c5 3fbc 5c94 1f3c d6eb 81bc 8de0 023d
000001d0: 2579 d0bd 2e43 cc3d 18e3 c8bc e2e1 133d
000001e0: c791 28bc 1c02 8b3b 643c 6c3d 4000 79bd
000001f0: 22c8 dcbc 487c 36be eca1 93bd c062 793c
00000200: 092e 3abd 5765 ae3b 8664 3ebd 60d7 fbbd
00000210: f591 5c3d c86d 583d d619 873d da39 e23b
00000220: c775 893e 28e1 f4bb aead 283c af68 48bd
00000230: 186d 07be 30a8 943c f76e ef3d 10b9 c7be
00000240: 72cd dc3d 5df2 4abd 006d a1bd db92 cf3d
00000250: ff27 263d b7cd 77bc d967 ccbc e266 f4bd
00000260: c258 92bc 4ff0 e03a fd45 beba 600d e0bc
00000270: 2139 92bd ff23 fa3c 4fa9 a1bb d027 77bc
00000280: ef23 e1ba 40e5 8f3c b46a 533b 0065 f1bb
00000290: d9d8 b73d 3230 02be ef43 053d 6af9 173e
000002a0: 0bc5 6ebd c143 753c 4fe0 9d3c 965f 553d
000002b0: 8c66 f5bc 6f23 cdbc e55d 0abd 5a9b 88bc
000002c0: ee9f c73d 9240 1d3e 7f1b 393d 7e44 153e
000002d0: 1d45 873d d631 38be 6991 4bbd bad4 10bd
000002e0: f501 cfbc 108f 8c3d 67cd 333c ec82 b9bc
000002f0: cfce 20be b523 463d 3471 32bc 8aac 563d
00000300: 6ede cbbb ef37 a93c 78c5 1bbc 3fd9 e63b
00000310: c6ae aa3c 144b 37bc 6542 81bc f80d 1ebd
00000320: a4f0 02be f767 8b3c 024c ca3c 1169 163d
00000330: 8f5a 04bc 54d4 83bc 4687 65bd 291e 823b
00000340: e29a 49be 8319 54bd ad6a 043b ae22 3abc
00000350: b794 e43d 9ace a63c 37a3 eabc 84fd 473d
00000360: 5fa5 6d3c 7438 7dbc 5555 b3bc fcf5 843d
00000370: 2fc1 e3bd 8c3a 753e adf2 afbb da31 52bb
00000380: 7b52 68be d611 7b3d b448 4cbc ebf7 ff3b
00000390: 0f85 84bb 15ad 803d f847 1bbc 6b4e a13d
000003a0: cb4c 22bd b998 c13c 66dc 40be 8359 f03b
000003b0: 2279 2dbd 5d6a 2e3d efe3 f33d ba32 1e3d
000003c0: 2295 8d3c f388 013d 4dc0 28bc 019d f33c
000003d0: 7950 8839 fd4e 1cbd ab80 e4bb 9953 2fbd
000003e0: 754d 91bd 4914 d5bc d6a1 33bc e6ab 4cbd
000003f0: 21c4 88bd f16e b1bd bddd 903d 1a2c 6ebd

model_4/block_0_project_BN/FusedBatchNormV3 f4 [64]
-0.27113807 -0.8209148 -0.41201335 0.07877719 -1.2098677 0.11244639 -0.34478608 0.40985325
-0.15536036 0.71281695 -0.023043672 -0.073196135 -0.8552431 -0.24267311 -0.3440732 -1.0662796
-1.1137685 -1.0237226 -1.3736017 0.24406905 1.0895281 0.07124851 0.9647148 -0.7289392
-1.830418 -0.07756295 -1.1587453 -0.011871954 1.555167 -0.06044459 -0.50778544 -0.8789211
0.7680219 -0.23940939 0.5114217 1.9772137 -0.23848812 -1.1530284 0.32854035 -2.2439806
0.89627224 0.10659983 0.3835309 0.41354755 0.5327666 0.8283225 -0.40408707 1.303272
0.20310706 0.11192369 -0.74857587 -0.029963851 0.6784175 0.34580058 0.39017433 -0.024030393
-0.7676327 -0.65841925 0.32445353 2.1091425 -1.0991592 0.13491488 0.7257514 1.3898978
00000000: 9cd2 8abe 7927 52bf 6af3 d2be ef55 a13d
00000010: f2dc 9abf 4b4a e63d cd87 b0be 49d8 d13e
00000020: c916 1fbe 2c7b 363f 15c6 bcbc dbe7 95bd
00000030: 36f1 5abf 4d7f 78be 5d2a b0be da7b 88bf
00000040: f78f 8ebf 5809 83bf 2ed2 afbf 3ded 793e
00000050: a875 8b3f bdea 913d 8df7 763f c29b 3abf
00000060: 234b eabf 53d9 9ebd c451 94bf 9682 42bc
00000070: b60f c73f bf94 77bd 3afe 01bf f900 61bf
00000080: 159d 443f bc27 75be 88ec 023f 5715 fd3f
00000090: 3b36 74be 6f96 93bf 7136 a83e 619d 0fc0
000000a0: 1972 653f 0351 da3d 2a5e c43e 81bc d33e
000000b0: 6463 083f f20c 543f 80e4 cebe 9ed1 a63f
000000c0: 4cfb 4f3e 3f38 e53d aba2 3fbf c076 f5bc
000000d0: c5ac 2d3f c60c b13e eec4 c73e 63db c4bc
000000e0: 9483 44bf 2a8e 28bf c61e a63e 31fc 0640
000000f0: 40b1 8cbf 2027 0a3e d8ca 393f 2ce8 b13f
